…
2025-03-29 22:30:08,708 - INFO - Adjacency matrix shape: (490, 490)
2025-03-29 22:30:08,708 - INFO - Reading Regional flows data...
2025-03-29 22:30:08,708 - INFO - Regional flows data loaded!
2025-03-29 22:30:08,708 - INFO - Regional flows datashape: (600, 490)
2025-03-29 22:30:08,708 - INFO - Start processing treatments files...
2025-03-29 22:30:08,724 - INFO - Treatment division done!
2025-03-29 22:30:08,724 - INFO - Splitting datasets...
2025-03-29 22:30:08,724 - INFO - Data shape for scaler creation is (488, 490)
2025-03-29 22:30:10,746 - INFO - Model Structure: CausalMob(
  (reg_embedding): Embedding(490, 64)
  (pt_trans): PTTrans(
    (tim_embedding): Embedding(168, 64)
    (linear): Linear(in_features=64, out_features=17, bias=True)
  )
  (linear): Sequential(
    (0): Linear(in_features=169, out_features=64, bias=True)
  )
  (res_blocks): ModuleList(
    (0): ResNormal(
      (gcn1): GCN(
        (gcn1): GraphConvolution (64 -> 64)
        (gcn2): GraphConvolution (64 -> 64)
        (dropout): Dropout(p=0, inplace=False)
      )
      (gcn2): GCN(
        (gcn1): GraphConvolution (64 -> 64)
        (gcn2): GraphConvolution (64 -> 64)
        (dropout): Dropout(p=0, inplace=False)
      )
    )
    (1): ResNormal(
      (gcn1): GCN(
        (gcn1): GraphConvolution (64 -> 64)
        (gcn2): GraphConvolution (64 -> 64)
        (dropout): Dropout(p=0, inplace=False)
      )
      (gcn2): GCN(
        (gcn1): GraphConvolution (64 -> 64)
        (gcn2): GraphConvolution (64 -> 64)
        (dropout): Dropout(p=0, inplace=False)
      )
    )
  )
  (treat_gru_prev): GRU(10, 64, batch_first=True)
  (treat_gru_post): GRU(10, 64, batch_first=True)
  (treat_linear): Linear(in_features=128, out_features=64, bias=True)
  (admit): ADMIT(
    (feature_weight): Linear(in_features=64, out_features=64, bias=True)
    (hidden_features): Sequential(
      (0): Linear(in_features=64, out_features=64, bias=True)
      (1): ReLU(inplace=True)
      (2): Linear(in_features=64, out_features=64, bias=True)
      (3): ReLU(inplace=True)
    )
    (drop_hidden): Dropout(p=0, inplace=False)
    (out): Sequential(
      (0): Dynamic_FC(
        (spb): MLP_treatnet(
          (hidden1): Linear(in_features=4, out_features=64, bias=True)
          (predict): Linear(in_features=64, out_features=64, bias=True)
          (act): ReLU()
        )
        (act): ReLU()
      )
      (1): Dynamic_FC(
        (spb): MLP_treatnet(
          (hidden1): Linear(in_features=4, out_features=64, bias=True)
          (predict): Linear(in_features=64, out_features=64, bias=True)
          (act): ReLU()
        )
      )
    )
    (rwt): Sequential(
      (0): Dynamic_FC(
        (spb): MLP_treatnet(
          (hidden1): Linear(in_features=4, out_features=64, bias=True)
          (predict): Linear(in_features=64, out_features=64, bias=True)
          (act): ReLU()
        )
        (act): ReLU()
      )
      (1): Dynamic_FC(
        (spb): MLP_treatnet(
          (hidden1): Linear(in_features=4, out_features=64, bias=True)
          (predict): Linear(in_features=64, out_features=64, bias=True)
          (act): ReLU()
        )
      )
    )
  )
)
2025-03-29 22:30:10,746 - INFO - Training...
2025-03-29 22:30:10,746 - INFO - Epoch 1
2025-03-29 22:33:05,164 - INFO - Start Validate
2025-03-29 22:33:07,512 - INFO - Validate Metrics for single time slot at 0: MSE=323434.6166, RMSE=568.7131, MAE=408.8927, MAPE=21.7362%
2025-03-29 22:33:07,512 - INFO - Validate Metrics for single time slot at 1: MSE=326072.8718, RMSE=571.0279, MAE=409.4422, MAPE=21.7606%
…
