…
2025-03-31 21:28:29,727 - INFO - Adjacency matrix shape: (490, 490)
2025-03-31 21:28:29,727 - INFO - Reading Regional flows data...
2025-03-31 21:28:29,730 - INFO - Regional flows data loaded!
2025-03-31 21:28:29,730 - INFO - Regional flows datashape: (600, 490)
2025-03-31 21:28:29,730 - INFO - Start processing treatments files...
2025-03-31 21:28:29,759 - INFO - Treatment division done!
2025-03-31 21:28:29,759 - INFO - Splitting datasets...
2025-03-31 21:28:29,759 - INFO - Data shape for scaler creation is (488, 490)
2025-03-31 21:28:33,692 - INFO - Model Structure: CausalMob(
  (reg_embedding): Embedding(490, 64)
  (pt_trans): PTTrans(
    (tim_embedding): Embedding(168, 64)
    (linear): Linear(in_features=64, out_features=17, bias=True)
  )
  (linear): Sequential(
    (0): Linear(in_features=169, out_features=64, bias=True)
  )
  (res_blocks): ModuleList(
    (0-1): 2 x ResNormal(
      (gcn1): GCN(
        (gcn1): GraphConvolution (64 -> 64)
        (gcn2): GraphConvolution (64 -> 64)
        (dropout): Dropout(p=0, inplace=False)
      )
      (gcn2): GCN(
        (gcn1): GraphConvolution (64 -> 64)
        (gcn2): GraphConvolution (64 -> 64)
        (dropout): Dropout(p=0, inplace=False)
      )
    )
  )
  (treat_gru_prev): GRU(10, 64, batch_first=True)
  (treat_gru_post): GRU(10, 64, batch_first=True)
  (treat_linear): Linear(in_features=128, out_features=64, bias=True)
  (admit): ADMIT(
    (feature_weight): Linear(in_features=64, out_features=64, bias=True)
    (hidden_features): Sequential(
      (0): Linear(in_features=64, out_features=64, bias=True)
      (1): ReLU(inplace=True)
      (2): Linear(in_features=64, out_features=64, bias=True)
      (3): ReLU(inplace=True)
    )
    (drop_hidden): Dropout(p=0, inplace=False)
    (out): Sequential(
      (0): Dynamic_FC(
        (spb): MLP_treatnet(
          (hidden1): Linear(in_features=4, out_features=64, bias=True)
          (predict): Linear(in_features=64, out_features=64, bias=True)
          (act): ReLU()
        )
        (act): ReLU()
      )
      (1): Dynamic_FC(
        (spb): MLP_treatnet(
          (hidden1): Linear(in_features=4, out_features=64, bias=True)
          (predict): Linear(in_features=64, out_features=64, bias=True)
          (act): ReLU()
        )
      )
    )
    (rwt): Sequential(
      (0): Dynamic_FC(
        (spb): MLP_treatnet(
          (hidden1): Linear(in_features=4, out_features=64, bias=True)
          (predict): Linear(in_features=64, out_features=64, bias=True)
          (act): ReLU()
        )
        (act): ReLU()
      )
      (1): Dynamic_FC(
        (spb): MLP_treatnet(
          (hidden1): Linear(in_features=4, out_features=64, bias=True)
          (predict): Linear(in_features=64, out_features=64, bias=True)
          (act): ReLU()
        )
      )
    )
  )
)
2025-03-31 21:28:34,585 - INFO - Training...
2025-03-31 21:28:34,585 - INFO - Epoch 1
2025-03-31 21:28:45,224 - INFO - Start Validate
2025-03-31 21:28:45,826 - INFO - Validate Metrics for single time slot at 0: MSE=310160.3487, RMSE=556.9204, MAE=406.6280, MAPE=21.8450%
2025-03-31 21:28:45,828 - INFO - Validate Metrics for single time slot at 1: MSE=314084.0725, RMSE=560.4320, MAE=406.6280, MAPE=21.7453%
…
